Lenet.pth (torch, 487900 bytes, 10 tensors)

conv1.weight f4 [16, 3, 5, 5]
00000000: b854 723c 0a5b 993d 004e 8abd df07 3fbe
00000010: 3aa0 0c3d 8e3c fa3c 34cf 7d3d 7287 0bbd
00000020: f3b1 97bd 9def 5b3e 7f90 03be 5bee ad3c
00000030: 3b22 2dbe 1f7e 37be 7a6f 933c 180d 25bc
00000040: aeef e13d def8 e43c 8b76 0fbd 540d 173e
00000050: 86f5 63bd 4fb2 d63d 632e 02be c2be 14be
00000060: 91c5 e93d dfd8 f9bd 526e 4f3e 79bd 13be
00000070: e5df 66be ee57 f53a 811a 9fbc 3ce2 9a3e
00000080: e374 9abd 1a7a 2dbc 70a0 e83d 4830 96bd
00000090: bc3f 803e 55ca 19be 060d 4fbe 4430 173c
000000a0: f5e5 6e3d 4299 793e 9c29 b1bd 34b2 3fbe
000000b0: 54b4 463e b639 f7bd 05c7 633d 41d2 75bd
000000c0: ef6f 00be 474d 053d 8b20 61be f0a8 683d
000000d0: 15a6 cebd bb06 84bd 73ab fb3d 3f3d 9dbc
000000e0: cd6e 843e fa4a e03c 03eb 13bc 7861 423e
000000f0: d39c 4cbd f559 433e dad2 f6bd 8a42 16bd
00000100: a4c5 cb3d 8cd5 53bd 7645 013e 866b 583d
00000110: 0a81 e4bd ee1c 003e 4bb3 06be d631 503e
00000120: b4be 1dbe 8455 b4bd 93fa 14bd 4da4 80bc
00000130: b9f0 07bc e5fc 31be 1d90 19be fbd8 9a3d
00000140: be94 123b 5422 ba3b 6de5 7fbd 0636 78bd
00000150: 35a2 dfbd 5c1b f6bd 6acb 15bc f0bb a73d
00000160: 52b8 65bd d4fe 08be efaf 46bc b1bd 64bd
00000170: 628a 9f3d 5ce6 7c3c 8b60 97bd ebc4 b9bd
00000180: d826 ccbc 9e56 8ebd 47c9 dfbd fe75 52bd
00000190: 4c3e fbba 368d 9a39 a3c0 5dbd 9561 533d
000001a0: 87b8 0dbc 0a70 df3d ae33 943d 3534 d7bd
000001b0: 28fd 0c3c 6a33 1dbc a1a4 873d be17 bebd
000001c0: 1650 febd b9b5 bebd 5ecb e5bd 5bb6 1b3d
000001d0: 24f9 5c3d 3cf8 90bd 47dc 103c d916 f13c
000001e0: e59f eb3c 55ed e8bd b632 7f3d dfbd d6bd
000001f0: 4576 f3bc 274e c0bd 0b39 363c abfa 773d
00000200: 25c8 ccbd 0ecd cb3d 0517 163e e07e 09bc
00000210: 8950 b5bc 2eef adbd 7418 f53b cf6b 823c
00000220: e270 f1bc 9257 df3c b20a 6d3d 285a febd
00000230: 0b59 ec3c d599 a33d c208 b63d 5498 373c
00000240: 4bd8 b7bd 5bbc b33c 7506 0c3e fc27 df3d
00000250: 853b d33d ee4a 033e 82fa 0d3e 3421 b9bd
00000260: 458f 08be dd38 0d3d e1ce c23d 5a0c 01bd
00000270: f5a8 2d3d c721 113d 95ae 493d 4a00 073d
00000280: ab87 6dbd 686e b0bd 0939 f1bb cb66 fabd
00000290: cff7 ebbc 95b4 57bc 5459 15be 4b2f d9bd
000002a0: 3473 473d a95e a23d a46a 36be 73fc 9bbc
000002b0: f3c9 78bd d70c 1f3d 588d 56bd c562 a1bd
000002c0: 2edb 04be a1c6 e0bc 7ed0 9e3d 3b33 1a3e
000002d0: e3db 563b 2ca3 bd3c 98e1 f33d bbf0 97bd
000002e0: 49ae 75bc c3c4 763d 266b d9bc e739 033e
000002f0: 634c dabc de4f 6a3d 9b55 d53b 3864 acbc
00000300: a98c 2f3d 7e85 e93d cff5 2a3e f343 03bd
00000310: 3887 15bd b468 033e 0e7c b73d df4e b03d
00000320: 6f79 293d 1140 3cbe d4de 24be b3e7 6bbd
00000330: 1a9e 18bd 748d dd3c a167 01be 1e09 863d
00000340: 88f7 d13d 49ad cbbc 4976 3e3d 9906 a8bd
00000350: 4402 0abe cd5e d8bd 1ea5 8f3d 3562 153d
00000360: 0997 0ebd 6893 edbd f30c 84bb 5ea5 3b3e
00000370: 50ef 20bd a772 4d3c 8914 153e 7951 b63d
00000380: a803 233d a6e9 603e 12e0 843e b864 4b3e
00000390: 802f 2b3e 94ed f8bb d577 5f3d fdbc 0e3e
000003a0: 93c3 41bd faa5 14be 259c 21be 6eb3 99bc
000003b0: 3d4d f93c f5f8 93bc 58a4 10be 409a 943c
000003c0: 20a7 d2bd e135 21be cde1 9b3d b357 c7bd
000003d0: 714c adbd 80bb fabd c868 313d e15d 49be
000003e0: 1a65 82bd d771 96bd ec3f 1abd f5a4 163e
000003f0: f931 443e 35d6 113e 3942 12be 0dc7 dc3d
0.014790706 0.074880674 -0.067531586 -0.18655346 0.03433249 0.030546453 0.061965182 -0.034064718
-0.07406988 0.21478124 -0.1284809 0.02123182 -0.16907589 -0.17919205 0.017997492 -0.010073923
0.110320434 0.0279507 -0.03502516 0.14751178 -0.05565407 0.104832284 -0.12713008 -0.14525893
0.11414636 -0.12199568 0.20256928 -0.14427747 -0.22546346 0.0018718222 -0.019421818 0.30250728
-0.075418256 -0.010588193 0.11358726 -0.07333428 0.25048625 -0.1501859 -0.20219812 0.009227816
0.058324773 0.2437487 -0.086505145 -0.18720323 0.19404727 -0.12071554 0.05560972 -0.060014967
-0.125427 0.0325444 -0.2198507 0.056801736 -0.100902714 -0.06446596 0.12288561 -0.019194243
0.25865784 0.027379502 -0.009028199 0.18982494 -0.049954247 0.19077285 -0.120519355 -0.03668455
0.09949806 -0.051717326 0.12624153 0.052836917 -0.11157425 0.12511036 -0.13154332 0.20331511
-0.15404779 -0.08805373 -0.03637178 -0.015703345 -0.008297139 -0.17381628 -0.14996381 0.07560917
0.002236649 0.0056803618 -0.062474657 -0.060598396 -0.109196104 -0.12016937 -0.009142736 0.08190143
-0.056083985 -0.13378459 -0.012126907 -0.055844966 0.07790066 0.015435781 -0.07391461 -0.09070762
-0.024920866 -0.06950115 -0.109270625 -0.051382057 -0.0019168346 0.0002947838 -0.05413879 0.051606733
-0.008649952 0.10910042 0.072364196 -0.105080046 0.008605279 -0.009594778 0.06623197 -0.09281872
-0.12417619 -0.093120046 -0.1122043 0.038015705 0.053948537 -0.07078597 0.008841581 0.02942984
0.028762767 -0.113733925 0.06230422 -0.10485434 -0.029719481 -0.093899064 0.011121999 0.06054179
-0.09999112 0.099512205 0.14657219 -0.008392066 -0.022133129 -0.084928855 0.0074797217 0.015920548
-0.029472772 0.027263436 0.057871528 -0.1241954 0.028851053 0.079883255 0.08888389 0.011205751
-0.089768015 0.0219404 0.13674338 0.10896298 0.10314087 0.12821552 0.13865092 -0.09039536
-0.13335903 0.034478057 0.09512115 -0.03150592 0.042397458 0.035432603 0.04923876 0.03295926
-0.05799071 -0.08614808 -0.0073615354 -0.122266375 -0.028804688 -0.013165613 -0.14584857 -0.106047235
0.04869385 0.07928211 -0.17814118 -0.019041276 -0.06073947 0.038830604 -0.05238089 -0.07880167
-0.12974235 -0.027438464 0.077546105 0.15058605 0.0032784871 0.023149095 0.11908263 -0.074189626
-0.014995166 0.06024624 -0.02654035 0.12815057 -0.026647752 0.057205074 0.006510449 -0.021043882
0.042858753 0.11402415 0.16695331 -0.032047223 -0.036505908 0.1283291 0.089592084 0.086087935
0.041375574 -0.18383814 -0.16100627 -0.057594012 -0.037260152 0.02704499 -0.12637188 0.06544708
0.10252291 -0.024862902 0.046499524 -0.082043834 -0.13477427 -0.10564957 0.070139155 0.03647061
-0.034812007 -0.11600381 -0.004029864 0.18324801 -0.039290726 0.012539542 0.14558615 0.089022584
0.03979841 0.2196413 0.25952202 0.1986264 0.16717339 -0.007596681 0.05455764 0.13939281
-0.047305655 -0.1451644 -0.1578222 -0.018762317 0.030432338 -0.018063048 -0.14125192 0.018139958
-0.10285783 -0.1574321 0.076114275 -0.09733524 -0.08461846 -0.12242794 0.043312818 -0.19664718
-0.0636694 -0.07345932 -0.037658617 0.14711364 0.19159688 0.1424187 -0.14283074 0.107801534

conv1.bias f4 [16]
00000000: a7cc 12be 6f01 85be 394f b8bd e84d 0abe
00000010: 7591 58be d4b0 ee3b 8b11 88bd ff04 8fbe
00000020: 0faa 573e 9019 513d 505d b8bd 9214 ffbd
00000030: 11fe e03d e16a c8bd 81f1 75bd d9e6 a0bd
-0.14335881 -0.25977656 -0.089994855 -0.13506281 -0.21149237 0.007284263 -0.06643971 -0.279335
0.21060966 0.05104977 -0.09002173 -0.12455095 0.10985959 -0.097860105 -0.06004477 -0.07856531

conv2.weight f4 [32, 16, 5, 5]
00000000: b649 473e 0e69 0c3d 077c 993d acbc aabb
00000010: 8c5e d5bc 9b81 1f3e 968b fd3d dc16 533d
00000020: 5561 943d 89bc 753d 9fd7 bcbb 65fa 113e
00000030: d5cb cb3d e771 a73d 9178 fb3a 751c 943d
00000040: 2bee a53d 501f 313e cbb7 f63d 151c ca3c
00000050: 52f4 d1bd 0109 0e3c cf9b 8e3c fdce 7cbd
00000060: 31e4 8ebd 1b03 dcbd 090e 27be a436 5fbe
00000070: cbd1 51be 5e24 f1bd e928 4bbe db2b a7bd
00000080: a345 d2bd 9864 d8bd 4de3 32bd 1b15 98bd
00000090: c306 80bd 73e2 4ebd 9b0e e23b faa7 f63c
000000a0: accd c1bc 982d bf3c 105a 9cbc ae54 273d
000000b0: 2f71 b83d 128d b43b 7751 913d e11e f23c
000000c0: 5ceb 1c3d d820 923d 0f58 6dbd b275 843d
000000d0: 657f 663b ece4 f4bd f845 09be 8611 833b
000000e0: 0bbe 8c3d b213 c83c 281c febd f6e6 bdbd
000000f0: 6345 91bd 0d04 10bd 2c69 81bd c6f3 f8bd
00000100: 4ac5 3b3d 89e0 80bd f0c4 19bd 2387 12bd
00000110: 7aa9 d8bc 743a f23d bde5 c4bd 382c 6c3c
00000120: 4f30 573d b5c9 d03d 3e33 343e f470 4cbc
00000130: b920 0bbd 51a3 bcbd 7bfd 00bc a876 403e
00000140: d59a 55bd d209 b4bc 5141 cd3c 067e 853d
00000150: 9cbc 433e 4dc3 0e3d 4a5b 283d e89f db3d
00000160: 35f9 413e 9237 563e 57ce ec3d 6cab 1f3e
00000170: 384d 503e c688 523e 6c79 f13d c194 2f3e
00000180: 7010 4f3e fadb 433e d13d 493e afe2 bb3c
00000190: 0d80 ac3d 3e74 ae3b 9b4f e2bc 03dd f8bc
000001a0: bea9 423c 9b42 f7bc 4047 08bd c0e5 e6bc
000001b0: f5e3 3fbc 6088 08bd b34a 1d3d 6bc4 043d
000001c0: a3bb 8abc 94cb 75bd 5325 e2bd 7526 753d
000001d0: c52d 663b c4fe c0bc b710 90bd 026e 4cbe
000001e0: f80b bc3d 9bf0 fcbc 5802 1ebd 7325 a9bd
000001f0: cccd 16be 3ff5 03be 8625 04be 7646 04be
00000200: a1e1 24be e0d7 85bd 5750 46bd 93e0 cfbb
00000210: 996e 88ba 95b3 1bbc c153 9f3d 9b18 cdbd
00000220: 84cd aebb b413 cf3c 475a 4ebd c254 d1ba
00000230: 0b18 34bd 59af ffbc d873 67bd eeb5 103c
00000240: d94e a73d e9f5 78bd 20dc 97bd 04c4 0fbd
00000250: d383 80bd af0a c93b 4348 26be 7f24 d5bd
00000260: 1620 c4bb 2aa9 f3bd 1d35 71bd c3cf 8ebd
00000270: a11f 0bbe d61b b7bd 0312 22be 6dbf 88bc
00000280: 1503 d9bd 432a f2bd ef61 c8bd e786 ebbd
00000290: fcb7 efbc 07f5 8cbd 0c26 3dbb ebe2 10bc
000002a0: 3225 9bbc 622c c3b9 2b4b 0dbe ce40 71bd
000002b0: 902f d8bd 145a 6cbd f579 b53b c4b7 36bd
000002c0: f014 16bd 9cdc 4ebd 8dc6 6ebd cd61 2bbe
000002d0: c36c 9d3d 6c3f 8b3d e3f3 f13b 9114 093d
000002e0: 5310 8fbd 76b3 333d 5c7b 5f3d bf11 0fbd
000002f0: 727b 30bb fc83 66be b8e8 cebc 3c4c d1bd
00000300: a55d b1bd fd3b ddbd f66a 1fbe 6ec5 5cbd
00000310: 8f04 323d 13d4 a73c edc8 86bd fa95 82bd
00000320: 9cdb 03bd ad86 673c 8466 e1bc f800 e73b
00000330: 0d54 963c 67fa efbd 6133 eebc 4a91 acb9
00000340: 41de cfbc a95c 433b c4d7 163c 0b69 023d
00000350: 9873 f93c ad62 083d 4d8e 3c3d bf78 043c
00000360: 2972 b93d 98e9 643d 19bc 4f3c 9780 a93d
00000370: 935d 4e3b 61de 483d 0f15 4c3d 97a7 eb3c
00000380: 3563 bf3d d52f 183c 7cfc 223c 0ba0 0ebc
00000390: 23e0 8bbd f2d1 5ebd 1ab8 2ebd f9f4 5f3c
000003a0: a0e0 0ebe 4a5d 1ebe cdf5 51bd f0e3 54bd
000003b0: 3914 e3bd 3d81 cebd 9ad1 85bd 42f0 653c
000003c0: 5146 633c 272b 7ebd f640 c0bd 13e8 823d
000003d0: b562 0c3e 0262 20bd 80ae d5bc 8367 cabc
000003e0: ea56 303d acaa 3c3d d5d9 a23d a2aa 3c3d
000003f0: b5cf ca3d 51a6 d13d 7c41 0e3e 57e5 15bd
0.19461712 0.034279875 0.074943595 -0.0052104797 -0.02604606 0.15576784 0.123801395 0.051535472
0.07245127 0.059994254 -0.0057630087 0.14255674 0.09950987 0.08176022 0.0019185712 0.0723199
0.081020676 0.17297101 0.120467745 0.024671594 -0.102516785 0.008669139 0.01740828 -0.061720837
-0.06977118 -0.1074278 -0.16313948 -0.21798187 -0.20490186 -0.117745146 -0.19839825 -0.08162662
-0.102671884 -0.10566062 -0.043673802 -0.074259005 -0.0625129 -0.050508928 0.0068987138 0.030109394
-0.023657642 0.02333717 -0.019085914 0.04085224 0.09005963 0.005509981 0.07095616 0.02955574
0.038310394 0.07135171 -0.057945307 0.06467761 0.0035171148 -0.11957726 -0.13405597 0.0039998917
0.06872185 0.024423454 -0.12407714 -0.09272568 -0.070933126 -0.035160113 -0.06318888 -0.12155871
0.045842446 -0.06292827 -0.03754133 -0.035773408 -0.026448 0.11827555 -0.096141316 0.014414839
0.052536305 0.101947226 0.17597672 -0.012478102 -0.033966754 -0.09210838 -0.007872934 0.18795264
-0.052149612 -0.021977339 0.02505556 0.06518178 0.19114918 0.034854222 0.041102685 0.10723859
0.18942721 0.20919636 0.11562794 0.15592736 0.20341957 0.20559987 0.117907375 0.17146589
0.20221114 0.19126883 0.19652487 0.02293524 0.08422861 0.0053239157 -0.02762585 -0.030378824
0.01188129 -0.030183127 -0.033271074 -0.028185725 -0.011712064 -0.033333182 0.038401317 0.03241388
-0.016935175 -0.0600086 -0.11042275 0.05985113 0.0035122496 -0.023558982 -0.07034438 -0.1996384
0.0918197 -0.030876448 -0.038576454 -0.08259096 -0.14726943 -0.12886523 -0.12904939 -0.12917504
-0.16101696 -0.065353155 -0.04841646 -0.00634391 -0.0010408937 -0.009503265 0.07779647 -0.10014459
-0.005334558 0.02527795 -0.050379064 -0.0015970694 -0.04396824 -0.031211542 -0.05650696 0.008832438
0.08169336 -0.060781393 -0.074150324 -0.035099044 -0.062751435 0.006135307 -0.16238503 -0.10407352
-0.0059852703 -0.118975 -0.058888543 -0.06973221 -0.13586284 -0.08940856 -0.15827183 -0.016692841
-0.10596291 -0.11824467 -0.09784304 -0.1150034 -0.029262535 -0.06882673 -0.002886179 -0.008843164
-0.018938635 -0.00037226366 -0.13798206 -0.058899693 -0.10555947 -0.057703093 0.00553822 -0.044608846
-0.03664106 -0.05050336 -0.05829482 -0.16736527 0.0768676 0.06799206 0.00738381 0.03346688
-0.069855355 0.04387232 0.054561004 -0.034929033 -0.0026929048 -0.22511286 -0.025257453 -0.10219619
-0.086604394 -0.108024575 -0.15568146 -0.05389922 0.04346138 0.020486867 -0.06581292 -0.06376262
-0.032191858 0.01413123 -0.027514704 0.007049676 0.018350625 -0.11717682 -0.029077234 -0.00032914645
-0.025374534 0.0029809868 0.009206716 0.031838458 0.030450627 0.03329723 0.046034146 0.008085429
0.090549774 0.055886835 0.012679123 0.0827648 0.003148888 0.049040202 0.04982477 0.028766437
0.09345094 0.009288748 0.009947892 -0.008705149 -0.0682986 -0.05439944 -0.04265604 0.013669246
-0.13952875 -0.15465274 -0.051259805 -0.05197519 -0.110878415 -0.10083244 -0.06534119 0.014034333
0.013871745 -0.062052872 -0.0938739 0.06391921 0.13709529 -0.039155968 -0.026084185 -0.024707561
0.043051638 0.046061203 0.079517044 0.046061166 0.09902898 0.102368005 0.13892168 -0.03659567

conv2.bias f4 [32]
00000000: 2999 4dbd dd9a 91be e19e f1bc c596 993d
00000010: 5247 953e cfbe 443d 688d 033e 018d 03bd
00000020: 7135 a5bd 846f 2d3e 5796 7c3e cc74 0c3d
00000030: 5d5e 91bd eeaf 01bc 8558 68bd 3fdd 2f3e
00000040: 6adf 8abd f838 953e 0227 233e b3b5 263e
00000050: 34b5 59bd 4472 d73e 7593 fabd 6700 693e
00000060: e3f9 11bd e8d0 38be bb9b 373b ace6 553c
00000070: 1db4 a5be dcba 06be fed3 cabd 8816 db3a
-0.050194893 -0.28438464 -0.029494705 0.0749946 0.29155976 0.04803353 0.12846911 -0.032116894
-0.08066834 0.16937071 0.24666725 0.034291074 -0.070980765 -0.00791548 -0.056725044 0.17174242
-0.06780894 0.29145026 0.15932849 0.1628025 -0.053151324 0.42079365 -0.122351564 0.2275406
-0.0356387 -0.18048441 0.0028016407 0.013055485 -0.32363978 -0.13157219 -0.099037156 0.0016715089

fc1.weight f4 [120, 800]
00000000: 973e f9bb 101f 4c3d c849 d23d e177 0f3e
00000010: 2873 a43d 9f3d 90bd df97 89bd 503b d0bc
00000020: 7c75 043b 7c7c 9f3d c42f fdbb d070 1dbd
00000030: f7a6 25bd 9144 2c3d 3c29 633d a063 b73d
00000040: 10ad dbbc aa7b bdbb 1c15 bebd 2e2f a0bd
00000050: d777 0d3d 3c24 f2bd f029 73bd a236 2b3c
00000060: ff86 48be 2646 6a3e 8fab 003e b74e e33c
00000070: 0c47 1b3d 73fe 13bd f3ea b93d 5cbd a93d
00000080: ced8 d83d 4371 ca3c 0ed5 c33d eca7 aebd
00000090: ec47 d33c b2f7 3f3a 5d14 1c3e 878b 1a3d
000000a0: 3b71 0bbe 669e a8bc 688e d23b 8e13 ce3d
000000b0: 3ad4 1c3e a3fe 8bbe 5b90 0cbd 6136 0dbe
000000c0: ada5 28be 29c9 82bd 4a75 8abc a5c4 94bc
000000d0: bead b8bc 3380 0ebd 311c 63bd c132 08bd
000000e0: cf59 a83c b422 223c 662d 243c afa5 cbbc
000000f0: d4fd f4bc f748 c0bc 3ade 613d 010b 26bd
00000100: 525f 773c 5464 20bd de0c d5bc 96ec 0bbc
00000110: a3f8 883c 47c2 873b b70b a33c fee2 a4b9
00000120: 1a38 99bb b8cb 703d c7df 48bd b16e d83d
00000130: 10f9 533d b067 32bd 8c08 523e 1601 323d
00000140: dcda ba3d 4d36 813b 85f9 043d e341 c93c
00000150: 6a89 debc a9f9 233d f5f2 be3c c55a 2dbd
00000160: 4c85 003c 7f70 86bd b167 133e eb19 cd3d
00000170: 5ec7 a73d 4b9c 173e ec53 44bd 17db 443e
00000180: 589b c73d de5f 263e 79b0 133e 6613 67bd
00000190: e336 063e c3d0 663c b8ee 403d 4250 d23d
000001a0: 3204 dc3d 9c8d b03d ef56 b63d 6c1a c03d
000001b0: a810 aa3d 3d30 20bc 7ff6 f2bc 3395 473d
000001c0: 49ea fbbc adac d7bc 6f0e 00be cc41 31be
000001d0: 7349 363a 4bc4 583c 5c30 4b3d fbb1 74bd
000001e0: d48a bf3d 5340 f9bc 5136 bb3b fbc1 133e
000001f0: e368 f63d 6d9c 943c e6af 403d 9138 c03d
00000200: 19c4 db3d 900f 35bb c67f 69bd a148 81bd
00000210: a9a3 34bd c34e 95bd a970 ca3d d0a2 193e
00000220: 9ab0 87bd ddcd 89bd 2ad2 4abd 6c8d a23b
00000230: ac93 0ebd a1d3 e6bd 5541 cbbd 4fb3 06be
00000240: b96f a6bc 035c 34bd c4ce a1bd 1510 38bc
00000250: 8c17 79be 0e4f 65be c0dd 98bd 4331 74bc
00000260: e13e 80bd dbe8 7e3d 6ef1 7d3a a77f 5b3e
00000270: 5aa2 7e3d ce8d d53b d46a 73bb 1d0e 1bbc
00000280: 8857 2c3c 6afa 7bbd 9a7f d7bd 3635 5d3b
00000290: 976d f9bc 69c5 953d 2240 3c3d 6b1a f7bc
000002a0: f7b0 1cbd a87b 12bd 5e64 7fbd a63b fc3c
000002b0: 654d 18be 616c 6ebc 0a19 a4bd 2fa9 923c
000002c0: a34f 85bc 3231 e3bd 6b80 01bd 57db e33d
000002d0: 481f af3d f508 843b f7e4 6dbd c33a 00bc
000002e0: 4b26 763e 505b 693d 545b 3fbc 89c0 73bc
000002f0: 598c 27bc c354 5c3e baae 7a3d 1191 053c
00000300: 46e1 19bc c3ea 743c ea13 d03d 8bd5 a2bd
00000310: 7fb5 d3bd f630 a5bd 3fe0 a6bd a339 35bc
00000320: 9e16 94bd 74bb 16be 0b6b b4bd 291d 14be
00000330: e317 c23c 6b27 68bd ada3 b8bc e8b5 8dbd
00000340: 2d26 a3bd 651d 703d 655a 6a3d 1b25 8d3d
00000350: 2158 95bc b21e 21bc a2c7 8bbd 4ad3 e23d
00000360: 7b16 e23d d86c e23b f8b1 2abd 2a97 b13c
00000370: da72 993d 7db3 bbbd 579f 86bd 238e 97bd
00000380: 480c 84bd e6f2 1fba 2fe3 8abd 2fcf 37bd
00000390: 7e85 f33d ae0d 193e a1b6 85bd 87ea 2cbc
000003a0: 3633 e9bd 5ccd b1bd 1af3 913c 35ed 80bd
000003b0: 330d d5bd 121b 5cbd ef1a 31bd c094 873c
000003c0: fa7a b1bc ea85 4a3d 20f2 acbc 930e c63c
000003d0: 69b3 a2bd 98c9 283d ac50 773d 545f 6d3c
000003e0: 2aea 75bd 9c0b 6ebe f462 9cbd c035 1fbd
000003f0: 989e 08be dd46 3ebc 952b 10be f72f 4ebe
-0.0076063382 0.04983431 0.10267979 0.14010574 0.08029777 -0.07043003 -0.0671842 -0.025418907
0.0020211628 0.077874154 -0.0077266414 -0.038437665 -0.040442433 0.042057578 0.055459246 0.08954549
-0.026815921 -0.005782564 -0.0928137 -0.07821499 0.034538116 -0.118233174 -0.059366167 0.010450037
-0.19582747 0.22878322 0.12565444 0.027747495 0.037909552 -0.036131334 0.09078016 0.082880706
0.10588227 0.02471221 0.09562121 -0.08528122 0.025791131 0.0007322981 0.15242143 0.03773072
-0.13617413 -0.020583343 0.0064256676 0.100623235 0.15315333 -0.2734271 -0.034317356 -0.13790275
-0.1646945 -0.063860245 -0.01690163 -0.018160174 -0.022543784 -0.03479023 -0.055446807 -0.033251528
0.020550637 0.009895969 0.010020589 -0.024859278 -0.029906191 -0.023472292 0.055143572 -0.040537838
0.01509841 -0.03915818 -0.026007112 -0.008540293 0.016720122 0.0041430327 0.019903047 -0.0003144964
-0.0046758773 0.05878803 -0.049041536 0.10567988 0.051751196 -0.043555915 0.20511073 0.043458067
0.09123775 0.0039432407 0.032464523 0.02456755 -0.027165134 0.040033016 0.02330921 -0.042322893
0.00784428 -0.06564426 0.14395024 0.10014709 0.08192323 0.14805715 -0.047931597 0.19224201
0.09746426 0.16247508 0.14422788 -0.056414984 0.13106875 0.014087859 0.04710266 0.10269214
0.10742988 0.0862076 0.089033 0.093800396 0.08303958 -0.009777126 -0.029658554 0.04872627
-0.030751364 -0.026327455 -0.12505506 -0.17310256 0.0006953694 0.013230394 0.049606666 -0.059740048
0.09352651 -0.03042618 0.005713262 0.14429466 0.12031724 0.018140996 0.04704275 0.09385789
0.10730762 -0.0027627684 -0.05700662 -0.06312681 -0.04410139 -0.07290413 0.098847695 0.15003514
-0.06625481 -0.067287184 -0.049516834 0.0049607065 -0.0348088 -0.11270834 -0.099245705 -0.13154338
-0.020316945 -0.04403306 -0.079007655 -0.011234303 -0.24325389 -0.22393438 -0.074641705 -0.014904323
-0.06261993 0.062233787 0.000968716 0.21435414 0.06216655 0.0065171486 -0.0037142532 -0.009463814
0.010518916 -0.06151811 -0.10522385 0.003375364 -0.030447764 0.073130436 0.0459596 -0.030163964
-0.038254704 -0.03576246 -0.062351577 0.030790161 -0.14873274 -0.014552207 -0.08012588 0.017902939
-0.016273325 -0.11093368 -0.03161661 0.1112582 0.08550888 0.004029388 -0.058079686 -0.00782651
0.24038045 0.056971848 -0.011679489 -0.014877447 -0.010226333 0.21516709 0.06120179 0.008152262
-0.009392088 0.01494855 0.10160048 -0.07950886 -0.10337352 -0.08065979 -0.0814824 -0.011061105
-0.072308764 -0.14719945 -0.08809479 -0.14464249 0.02369303 -0.056678217 -0.022538984 -0.069194615
-0.07966266 0.058621783 0.057215113 0.06891843 -0.0182305 -0.0098339785 -0.06825186 0.110754564
0.11039444 0.006909948 -0.04167363 0.021678526 0.07492609 -0.09165094 -0.065733604 -0.07400157
-0.06447655 -0.00061015633 -0.06781613 -0.04487532 0.11890696 0.14946625 -0.06528974 -0.010553963
-0.11386721 -0.08681747 0.017816115 -0.06295244 -0.10402908 -0.053736754 -0.043238577 0.016550422
-0.021665085 0.049444117 -0.021111548 0.024176871 -0.07944376 0.04120788 0.06037967 0.01448806
-0.06003777 -0.23246616 -0.07636061 -0.03886962 -0.13341749 -0.011613575 -0.14079125 -0.20135485

fc1.bias f4 [120]
00000000: 8768 913c 54f4 e83d 8d29 0e3e a123 5a3b
00000010: b18f 57bd 9b7b 123b 8f1d 1abd 7df5 3abd
00000020: 5c63 653d 9308 24be eeb7 bf3c feb1 08bd
00000030: 147c 283e 39fc 633e a912 37bc 657d b3bb
00000040: fc53 bc3b 5fd9 85bb e50c ccbc fbbe 1a3e
00000050: 8ea0 d2bc 7331 33bc 970c 0d3e 5e01 49be
00000060: 3ac0 993e 4afa f23c c336 85be 49e8 9dbc
00000070: f623 463d c3cc 85bc 7bc9 d93d 11b4 4bbe
00000080: cee7 acbb 7108 353e 087a 303e 6681 80bd
00000090: 5fbc d33b b492 953e 0759 163e 8319 c2bc
000000a0: 4dde 353e 3a53 6e3d d266 75bc f881 5a3e
000000b0: a931 aabc f683 193d db2a 00be 845e a83d
000000c0: f2f2 3f3c f572 403e a509 513e ad97 22bd
000000d0: 083e 183c 176f 06be b08e 1dbd 2c90 463e
000000e0: f6e8 ec3e ce44 2b3e f883 aabc 7813 1abd
000000f0: 4db7 83bd 72c5 293e 8668 163c b0cf 2ebd
00000100: a6f5 eb3c 516c 00bc cd76 823e b141 ad3a
00000110: 76f2 963d 7564 273e 8902 883e ef10 34bd
00000120: 63cb d03c da8a 8abd e4d0 9f3e cee6 9f3e
00000130: bc61 1dbd cc9c 19bc e126 9dbd f66a 63bc
00000140: 9cbe 813e db29 74bd b67f 80bc e795 17bd
00000150: 144e 1bbb fbc0 a6bb 716e a6bc 953a e8bd
00000160: c4a8 2fbd 2f5c a6be 40ef 35bd 6ef6 ea3a
00000170: b6ff b9bb 6ddc cebc 6c98 b93e 207e ca3d
00000180: b015 7dbc 2874 fcbc 5b09 b0bb c125 6f3e
00000190: 2c05 4b3c 8960 a5bb b86d 563d b6b6 e0bc
000001a0: 392d 903c fbce 98bd 90c4 8f3e 0d25 453e
000001b0: c867 c5bc e229 f43d 7b81 ad3d 77d8 b53d
000001c0: 677e 6cbd e946 223d e429 fcbc 572e 523e
000001d0: 37d6 17bd 94cc 593e be72 bf3c 39f6 47bd
0.017750038 0.11374727 0.13883038 0.0033285397 -0.05262727 0.0022351507 -0.037625846 -0.045644272
0.05600296 -0.16018896 0.023403134 -0.03337287 0.16453582 0.22264184 -0.0111738825 -0.0054775947
0.0057473164 -0.0040847505 -0.024908492 0.15111916 -0.025711324 -0.010937083 0.13774334 -0.19629428
0.3002947 0.029660363 -0.26018342 -0.019275801 0.04837414 -0.01633299 0.106341325 -0.19892909
-0.0052766567 0.17679001 0.17234051 -0.06274681 0.0064616646 0.29213488 0.14682399 -0.023693806
0.17760582 0.05818484 -0.014978128 0.21338642 -0.020775633 0.037479363 -0.12516348 0.082211524
0.0117156375 0.18793853 0.20413835 -0.03969543 0.009292133 -0.13128315 -0.038466156 0.19390935
0.46271485 0.16725466 -0.02081488 -0.037616223 -0.06431446 0.16579226 0.009180194 -0.042678535
0.028803658 -0.007838325 0.25481263 0.001321843 0.073704645 0.16346915 0.26564434 -0.04396146
0.025487607 -0.06764765 0.31214058 0.31230778 -0.038423285 -0.009375762 -0.07673431 -0.013880482
0.25340736 -0.05961023 -0.015685897 -0.037008192 -0.0023697661 -0.005088923 -0.020316334 -0.11339299
-0.042885557 -0.32492206 -0.04441762 0.0017926225 -0.005676235 -0.025251592 0.362491 0.09887338
-0.015447065 -0.030817106 -0.005372209 0.23354246 0.01239137 -0.0050469083 0.05235073 -0.027430873
0.017599689 -0.074613534 0.28079653 0.19252415 -0.024097338 0.11922051 0.08471962 0.08879178
-0.057737734 0.039618406 -0.030781694 0.2052549 -0.037069526 0.21269447 0.023370143 -0.0488188

fc2.weight f4 [84, 120]
00000000: 8458 13be 8151 083d 62d8 94bd 1078 34bc
00000010: aa1d a8bd 1e98 9b3d 66f9 b13d 8466 5e3d
00000020: 1a2b d3bd 2bf9 98bd 28ad 0f3d 346a 4b3d
00000030: afcd c8bd a3a2 87bd 04ca 5d3d 2465 72bd
00000040: 8946 47bd ef8c 843d ba49 c63a 9d33 53bd
00000050: e0c1 6f3c 28ce 7b3d c77e 7e3d e21b b6bd
00000060: 54cf 073d 707e 3ebc fd78 62bd 5e44 b63d
00000070: 69c4 523d 8a20 33bc 59e6 df3c 3c44 c0bd
00000080: 53c7 2cbd 0edd dcbc 15d6 e1bd 820d a2bd
00000090: 471e 3cbd 6ead a9bd 199e 413b fc63 b73d
000000a0: 5a78 debd 93a8 c93d 7d57 adbd af21 d5bd
000000b0: 18bf 803c d0d8 393c ae4e 433d 3333 11bd
000000c0: 288b d8bc c547 843d ece7 2bbd a8d4 723d
000000d0: 0852 1fbc 2472 563d 2b6e babd 985a 703d
000000e0: f2c0 ffbd a36a 3a3d 8274 e23c 4932 72bd
000000f0: 8f1b 18bd 55ee 90ba 521d a13d 8938 12bd
00000100: 9efd b9bd 5043 99bd 88c6 edbc dc54 063d
00000110: fe5e ddbd 9de3 02bd f1dd ab3c 3402 2ebd
00000120: cae7 14bd 6f2f 6cbd 3911 83bd 4755 cebc
00000130: 5c26 183d 1d0d 31bd 8365 29bd 9c83 9fbc
00000140: 445c 21be 5e07 1dbd 7421 db3c 2574 d5bd
00000150: 8431 cfbd 0fa3 01bd 3c5f 8cbd fb9f aabd
00000160: 3c37 86bd 7adb b2bd 3532 cbbd c06d b23c
00000170: 3636 82bc eb8d 96bd ea0f 05bb b55f d6bc
00000180: 802f bc3c c2a9 61bd e008 a83c 406b 5ebd
00000190: cc8e abbc cc42 02bd dc5f 9ebd 7110 afbd
000001a0: ab9c b6bd aa79 9fbd 7d86 46bd 92cf b03d
000001b0: 482a 073d 4c0a 3e3d dc7e 4abd f078 4dbd
000001c0: 1216 78bd dab2 a03c 6b6d 82bd f8ed 13bd
000001d0: b0e3 4e3d b51d 00bc b521 88bd 047c 243d
000001e0: fefb ecbc 79ad 23be a3d9 e53d 9f61 aabd
000001f0: 40d5 86bd cf86 e03c 17c6 98bd 4451 683c
00000200: ea97 273c f055 91bd ee6c 293d 1eab 02bd
00000210: 966b e73d 40f5 c8bc c0e7 8e3b 5b67 6dbd
00000220: 9487 1d3d e443 0b3d fffb ddbd 838a 913d
00000230: 956e 9b3c 5fd9 55bd 1ebf ad3d 6548 01be
00000240: 998f 4dbc 9502 9ebc 539f 903c 6c99 2b3d
00000250: 5287 08be 7ec5 eebc 12cc 86be 8ba6 fbbd
00000260: 8931 923d 9f5a 2cbd 60f4 9abd d09a 593d
00000270: 4dc4 c1bc 122a 9a3b 394e 0ebd 30aa 863b
00000280: 9d3f 7b3c b556 d7bd bf86 1dbd 4544 713d
00000290: 3511 db3c 6c26 333b 0864 60bd 1e6d 0c3b
000002a0: 5cc3 bb3c 4753 343e 5655 f6bd 4217 2e3c
000002b0: 08cc 673d db81 273d d6b7 3c3e b40c 293d
000002c0: dca2 1f3e 6c79 193d 4cf3 edbd 6b68 07be
000002d0: 24ef 863d 1d7b 453e 0d55 63bd d0c5 c63d
000002e0: 3f66 b4bd 5083 113e e8d9 123e 887d 123d
000002f0: 66f7 95bd b53b 753d fe27 fc3d e52c 043c
00000300: 9e06 223c e54f aebc 2469 6c3c 1880 7e3e
00000310: 9273 8fbd eaee b23d 2a8d 0b3e e407 103d
00000320: 8bb4 a73d 91c7 3abe 3de9 5bbd 9e69 403d
00000330: 596b 93bd 4dec 2fbd c422 643d 1396 c3bd
00000340: 25f6 bf3c 9762 afbc b779 b3bb 2ded 65bd
00000350: 9311 203d f94d fbbc 24a6 213e 5bf4 1fbe
00000360: 3b92 16bd 1b44 f7bd 9990 e3bc 8300 433d
00000370: fd5f a8bd 0020 8e3d 49f5 91bd b516 3dbe
00000380: 9835 96bd 9705 eb3d a0cf 7abb 7799 c43d
00000390: 620f 24bd a05b 133e 3618 a43c f8cc d13c
000003a0: 447d f33c ce87 8e3d ac39 233d c986 ed3d
000003b0: 5c30 ebb9 d57d 9a3d 7a58 0d3e dafa c1bd
000003c0: 4d6e 54bd 80d3 fb3b f98e f9bd b005 bb3b
000003d0: 2545 17bd 0089 63ba 2f2d 41bd 85c5 3ebd
000003e0: 86f1 2dbd a85a 8bbc 501b 013d 7891 103c
000003f0: 9b7e 02be d047 08be 73c1 6cbd e075 4bbb
-0.14389235 0.033280853 -0.07267834 -0.011014953 -0.08208783 0.075973734 0.08690147 0.054296985
-0.10310955 -0.074694 0.035077244 0.04966183 -0.09804856 -0.06622817 0.054147735 -0.059178486
-0.048651252 0.064721934 0.0015128173 -0.051562894 0.014633626 0.061475903 0.062132623 -0.08892037
0.033156708 -0.011626825 -0.055291165 0.08899759 0.051456843 -0.010933051 0.027331518 -0.09388015
-0.042182278 -0.026960876 -0.11027161 -0.07912733 -0.045927312 -0.08285032 0.0029543696 0.089546174
-0.10862799 0.09846606 -0.08463953 -0.10406815 0.01571612 0.011343196 0.047682457 -0.035449218
-0.026433542 0.064590015 -0.041969225 0.059284836 -0.009724148 0.052354947 -0.09103044 0.058680147
-0.12487973 0.045511853 0.027643446 -0.059129987 -0.037135657 -0.0011057357 0.078669205 -0.035698447
-0.09081577 -0.07483542 -0.029025331 0.032795772 -0.10809134 -0.03195535 0.020979853 -0.04248257
-0.036353864 -0.057662424 -0.06399769 -0.025187148 0.037145957 -0.043225396 -0.041356575 -0.019471936
-0.15757853 -0.038337104 0.02674935 -0.104225434 -0.10116866 -0.031649645 -0.06854102 -0.08331295
-0.06553504 -0.08733268 -0.099216856 0.021780849 -0.01589499 -0.073512875 -0.0020303675 -0.026168684
0.022971869 -0.055093534 0.020512044 -0.0543015 -0.020942114 -0.031801984 -0.077331275 -0.08548058
-0.08916601 -0.077868775 -0.0484681 0.08633341 0.032999307 0.04639654 -0.04943739 -0.050164163
-0.060567923 0.019616533 -0.06368526 -0.036115617 0.05051011 -0.007819583 -0.06647054 0.040157333
-0.028928753 -0.15984143 0.112231515 -0.08319401 -0.06583643 0.027408032 -0.07459658 0.0141795315
0.01022909 -0.070964694 0.04136365 -0.03190147 0.11299817 -0.024531007 0.004361123 -0.057959896
0.038459376 0.034000292 -0.1083908 0.07106497 0.018973628 -0.052209254 0.08483718 -0.12625273
-0.012546443 -0.01928834 0.017654097 0.04189436 -0.1333287 -0.029146906 -0.26327568 -0.12287625
0.07138354 -0.04207861 -0.07566142 0.053126156 -0.023653174 0.004704722 -0.034742568 0.0041096434
0.015334991 -0.10514585 -0.038458582 0.058902998 0.026741603 0.0027336134 -0.054782897 0.0021427344
0.022920303 0.17609893 -0.12027995 0.010625662 0.056591064 0.040895324 0.18429503 0.04127188
0.1558947 0.037469313 -0.11618671 -0.13223426 0.06588581 0.19285245 -0.055501033 0.097056985
-0.088085644 0.14210248 0.14340937 0.035764247 -0.07322578 0.059871394 0.123123154 0.008067344
0.009889273 -0.021278331 0.014429364 0.24853551 -0.07004465 0.087369755 0.13628069 0.035163775
0.08188733 -0.18240191 -0.05368923 0.046975724 -0.07198209 -0.042949963 0.055697218 -0.09550109
0.0234328 -0.021409316 -0.005477156 -0.05613439 0.03907926 -0.030676829 0.15786034 -0.15620558
-0.03676055 -0.12073537 -0.02777891 0.04760791 -0.08221433 0.06939697 -0.071268626 -0.18465693
-0.07334441 0.114756756 -0.0038270727 0.095995836 -0.040053733 0.14390421 0.020031076 0.025610432
0.029722817 0.069594964 0.039849922 0.11597974 -0.00044858723 0.07543532 0.13803282 -0.09471674
-0.051863004 0.007685125 -0.12185473 0.005707465 -0.036931176 -0.00086797774 -0.04716223 -0.046575088
-0.042466663 -0.017011002 0.031520188 0.008823745 -0.12743609 -0.13308644 -0.057801675 -0.00310456

fc2.bias f4 [84]
00000000: 6612 6cbd 89fc 823e c89e 00be cd9e 6dbd
00000010: 4c65 183d f9dc 603e 9be2 8d3e 4932 063e
00000020: 99f0 803e 44b0 02be 4328 1c3c f014 92bc
00000030: a8fc cebc cbc4 24be dcf1 513e 4738 153c
00000040: 4158 bebd 61a3 c2bc 9260 ce3d 186d 7d3e
00000050: 5f32 633e b145 693e 06d6 7b3e 1357 363e
00000060: 5004 d4bd a420 d63e b945 03be cfaa 063e
00000070: 5826 2abe a8d9 613e 7ec2 8b3d 5848 c43e
00000080: 3ef3 29bc 1e1a 97bd 5f88 42bd 7b8b 093b
00000090: bfb9 b03d f313 67bd 4d28 d83c 1c1a 6dbc
000000a0: b5f6 bbbd 0741 d23d 4bc4 ed3d 56dc cb3e
000000b0: 2b78 57bc b65d ad3d 3014 8cbd 48bf fd3d
000000c0: a809 b43d 9989 a1bd b795 903e a0fb bd3c
000000d0: 43f8 5e3e a7f9 6abc 2ea3 d7bd 042e 81bd
000000e0: 982e 643d abdd df3e 5109 8fbd 6972 a53e
000000f0: b5d5 deba a0ab 583d cc2b 0d3e 832a a73e
00000100: 783c f53d 34ab aabd c332 a33d 686e edbd
00000110: d5ca 6fbd baaa 713e a7d6 aebd 75ac b2bd
00000120: 69bc 81bd ee11 1d3e c096 943e e05f 673d
00000130: 05d9 28bd 2953 eebd b9b3 cdbd 5205 45bd
00000140: 6993 69bd 3542 89bd 0c21 18bd 26d5 0ebe
-0.057634734 0.25583294 -0.1256057 -0.058012772 0.03720598 0.21959294 0.2771195 0.1310512
0.2518356 -0.12762552 0.0095310835 -0.01783225 -0.02526696 -0.16090696 0.20502418 0.009107656
-0.09294177 -0.023759546 0.10077013 0.24748647 0.22187184 0.22780491 0.24593362 0.17806654
-0.10352385 0.41821778 -0.12819566 0.13151096 -0.1661619 0.22055686 0.06824206 0.38336444
-0.010372935 -0.07378028 -0.047493335 0.0020987678 0.08629178 -0.05641551 0.026386404 -0.014471557
-0.09177915 0.10266309 0.116097055 0.3981654 -0.013151209 0.084651396 -0.06839788 0.1239
0.08790904 -0.07887573 0.28239223 0.023191273 0.21774392 -0.014341748 -0.10529171 -0.06307605
0.055708498 0.43723807 -0.06984199 0.3231385 -0.0017000946 0.05289805 0.13786238 0.3264962
0.11974424 -0.08333436 0.079686664 -0.11593324 -0.058543045 0.23600283 -0.085370354 -0.087243
-0.063347645 0.15338871 0.29021263 0.056487918 -0.04122259 -0.11636955 -0.10044045 -0.048100777
-0.057025347 -0.06702081 -0.03714089 -0.13948497

fc3.weight f4 [10, 84]
00000000: 77a2 5d3d b249 96bb 6d0a 93bd e547 eb3b
00000010: 6c20 b13d 05a3 40be 54e9 283d 901c 8abe
00000020: c016 0bbe 277b a33d 5101 04bd 317f ca3b
00000030: 2275 5bbd bdc4 3c3e 7562 36bd e4ca 603d
00000040: 9e2b 80bd b9bc f6bd d285 a6bd 9df3 483d
00000050: 2092 a03d 2fe6 c33d 5d2a 8c3d f004 e83d
00000060: 9839 dcbc 08bc 0abe 4e81 c6bd 76dc aabd
00000070: 1de9 9cbd 44d2 003e fe4f 143e c50b 39be
00000080: dc27 37be 7213 e23d 6c1e b5bd 57c0 ddbd
00000090: ba7e b63d 4da5 35bd 7c1e fbbd d195 fcbd
000000a0: e67c 14bd d318 6dbd 9f42 78bc 1e64 26be
000000b0: 14bd 7d3d 3af8 90bd d1aa 80be 9ec6 93bc
000000c0: 7aed da3d 352b 5cbd 2c29 99be 79eb abbb
000000d0: 6606 eabc 7f6e a23d c402 18be c0ac a2bc
000000e0: 09ac 533d 2be7 df3c 1ec7 ebbd da0a 003e
000000f0: ec4c 37be 4163 c73d 0add cd3d ccdf 63be
00000100: 0d95 3bbe 89b3 ecbd 38d6 4ebe 4ead 2bbd
00000110: 7069 b3bd 997d 4ebe 133c 58be 0fd2 803d
00000120: 6d9c 133e 463c efbc e3d4 bb3d b46b c33d
00000130: dd4b acbd 473b 123e 69d4 373e 3e59 033c
00000140: 7f62 c83d 1743 71bc e338 f73c 15f7 babd
00000150: a171 0abe c296 35bd 73d2 97bd 6fb5 afbc
00000160: c581 cbbc c5dd 6bbd 8ed7 dabc 3e71 11be
00000170: df39 02be 537a 9bbd c5c7 edbb d4c3 8b3d
00000180: 8f96 083e 5fe3 2cbe 0e45 03be 7074 1b3d
00000190: a4d7 15be 70c8 cebd 0a65 38bc 817e 66be
000001a0: 8d44 f43a 450b b23d f79c 77be aba7 5f3c
000001b0: 7981 52be 5897 8ebe 62ad aebb 7ce5 af3d
000001c0: 5db8 20be fc9f 44be 9634 b03c 0497 56be
000001d0: 9058 aabb 69f8 83bb 0373 bc3d ba15 1abf
000001e0: 3119 2d3e ee0b 743d 7b64 b83d e752 76be
000001f0: 27b6 08be b577 e43d c87a 1bbd 9af0 6fbe
00000200: 3096 7abe c8fa c33d fc1a 0bbe 32f4 0fbe
00000210: 35a0 b73d ed09 983d 1402 16bd 94d0 37bc
00000220: 014b 8bbe e736 00bd eb2a 93bc 518c 87bd
00000230: 91ab bfbc 0531 71be da9e ee3d 26fb 83bd
00000240: d30e 083e 52bb 8fbe 0847 113e 2e97 213b
00000250: 4a09 25be 2ae4 2f3e 3f7a 093e 4bb0 373e
00000260: fb86 8cbe 4918 d7bd d60a f9bc 832f f9bc
00000270: d0d3 423d cd36 a93d 2fa1 c4bb ae64 3e3d
00000280: 4bb3 193c 35c5 08be fe2c 99bd e3bb babd
00000290: e8e9 86be 40f5 783d bbdb 3dbd 183b 3b3d
000002a0: 2ada bfbd ea2a 003e c79b 14be f7a8 d7bd
000002b0: 04fb 84bd f40d ccbb 879b 043d e675 253e
000002c0: 8693 063c e19d 323e da1b a7bd 0bb9 2bbd
000002d0: 3716 6fbe e055 853c 54e8 36bd a459 34bd
000002e0: 11a9 4bbe ed6e 7abd f5a5 a9bd 3db1 063e
000002f0: 0346 21be 97eb 76bd 5fe1 1b3e e22f 203c
00000300: cdc1 b63d f6fe 0b3e 923e 863d 34b6 cbbd
00000310: d796 413d e7da 0a3e 7e62 2dbe 8f55 0b3c
00000320: 5a97 99bd 8ddf 013d ff3b 96bc a2cb 603e
00000330: f1c9 a43d b074 ebbd 6eb0 68be 2b3a a83d
00000340: 58ba 10be d5d4 e6bd 1908 ddbd 3a12 c33d
00000350: 40c9 4dbc 120c a2be 8b3d d1bd 621e 6fbd
00000360: 267c b13d 7115 07bd d51d 823d 115a afbd
00000370: 1a68 343d 6a86 5e3d 9fec 18be 3b7c 31bd
00000380: d403 0dbe 9fbe 8c3c 9068 0bbe 2f18 c4bd
00000390: 9ea0 7ebd 99dc 893d 15b7 10bc e932 83bc
000003a0: aa1a 8a3c b0a4 803d 12d0 8bbc aae0 033e
000003b0: 94fe 433e 4689 8fbd 6632 9cbd e6f3 69bd
000003c0: 7c72 14bd 8fe1 573e 7519 56bd 7693 8b3d
000003d0: a667 7c3d 2e81 b0bc 07dd 09be f076 373b
000003e0: 6c32 8d3d a6bd cabc 170a 003d ca8f 463e
000003f0: 53e8 07be 0c3f 6fbd 90a5 2f3d 0185 42be
0.054110017 -0.004586422 -0.07179723 0.0071802014 0.08648762 -0.18812187 0.041238144 -0.26974916
-0.13582897 0.07982474 -0.032227818 0.006179713 -0.053578503 0.18434425 -0.04452749 0.05488099
-0.06258319 -0.12047715 -0.08130993 0.049060453 0.07840371 0.095653884 0.06844018 0.11329067
-0.026882932 -0.1354829 -0.09692632 -0.08342831 -0.0766165 0.1258021 0.1448364 -0.18070896
-0.17886299 0.11038865 -0.08843693 -0.108277015 0.0891089 -0.044347096 -0.12261674 -0.12333263
-0.036251925 -0.057885002 -0.015152602 -0.16249129 0.061947897 -0.070785955 -0.25130323 -0.018039044
0.10689826 -0.053752143 -0.29914224 -0.0052465764 -0.028567504 0.07931232 -0.14844805 -0.019857764
0.051677737 0.02733191 -0.11512588 0.1250414 -0.17900437 0.09735728 0.100519255 -0.2225334
-0.18318577 -0.11557681 -0.20198905 -0.041913323 -0.08760345 -0.20165099 -0.21116666 0.062900655
0.1441514 -0.029203545 0.09171464 0.09542027 -0.08412907 0.14280425 0.17952122 0.008016882
0.09784412 -0.014725468 0.030178493 -0.091291584 -0.13519908 -0.044333227 -0.07413187 -0.021448819
-0.024842152 -0.057584543 -0.026714113 -0.14203355 -0.12717389 -0.07591691 -0.0072564804 0.068244606
0.13338684 -0.1688361 -0.12819311 0.03795284 -0.14633042 -0.10096824 -0.011254558 -0.22509195
0.0018636152 0.08693556 -0.24180971 0.013650815 -0.20557202 -0.2784984 -0.0053307274 0.085886925
-0.15695329 -0.19201654 0.02150945 -0.20956045 -0.0051985458 -0.0040274155 0.09201624 -0.601894
0.16904141 0.05958169 0.0900354 -0.24055062 -0.13350736 0.11155645 -0.03795889 -0.23431626
-0.24471354 0.09569317 -0.13584512 -0.14057997 0.08966104 0.07423768 -0.036623076 -0.0112191625
-0.2720566 -0.03130236 -0.0179648 -0.0661856 -0.023397239 -0.23553856 0.11651392 -0.06444387
0.13286905 -0.28072602 0.14187253 0.002465676 -0.16116825 0.17176881 0.1342554 0.17938344
-0.27446732 -0.10502679 -0.030400675 -0.030418163 0.04756528 0.082624055 -0.00600066 0.046482734
0.009381126 -0.13356479 -0.07479285 -0.09117868 -0.2635033 0.060780764 -0.04635213 0.045710653
-0.09367783 0.1251637 -0.1451255 -0.10530274 -0.0649319 -0.0062272493 0.032374885 0.16158256
0.008213883 0.17443039 -0.08159609 -0.041924518 -0.23348318 0.0162763 -0.04465516 -0.0440308
-0.19888712 -0.061140943 -0.08283607 0.13153549 -0.15749364 -0.06028327 0.15222691 0.009777041
0.08923683 0.13671479 0.06554903 -0.09946862 0.047262993 0.13560067 -0.16932103 0.0085042855
-0.07499571 0.031707335 -0.018339155 0.2195268 0.0804633 -0.11496866 -0.22723553 0.0821422
-0.14133584 -0.11271063 -0.1079256 0.09524961 -0.012560189 -0.31649834 -0.102168165 -0.058378585
0.086662576 -0.032979432 0.06353346 -0.08562101 0.04404459 0.054327406 -0.14934014 -0.043331366
-0.13770992 0.017180739 -0.13614106 -0.09574925 -0.062164895 0.06731529 -0.008832713 -0.016015487
0.016858418 0.06281412 -0.01706699 0.12878671 0.19140083 -0.07008605 -0.076268 -0.057117365
-0.036241993 0.21082138 -0.05227037 0.06815235 0.061622284 -0.021545973 -0.13463221 0.0027994476
0.06894383 -0.024748635 0.031259622 0.19390789 -0.13272218 -0.058409736 0.042882502 -0.1899605

fc3.bias f4 [10]
00000000: 8c41 85bd e1a1 83be ce1c 753d cff7 5f3d
00000010: 425a a23e 1209 10be 5f34 863d af90 20be
00000020: a8ec 193e 28c6 70bd
-0.06506643 -0.2570944 0.059841923 0.054679688 0.31709486 -0.1406596 0.06552958 -0.15680192
0.15031683 -0.058782727
